cifar_net.pth (torch, 252005 bytes, 10 tensors)

conv1.weight f4 [6, 3, 5, 5]
00000000: 05e7 f7bb d3ee 9ebd 7dcc cebd 928b efbd
00000010: 9043 e63d ce6a b0bc c2d7 7ebd 7309 5ebe
00000020: b245 60be 33c0 e9bd 81d0 b9bd 2cba 63bd
00000030: c9a8 1ebe 00a1 3abe c8a4 b3bd 02dd a4bd
00000040: 0e97 93bd 4d58 5fbe 4214 18be 8ba0 c1bd
00000050: aa70 d0bc 2901 91bd 4f66 efbd 6ab0 21be
00000060: 8dca d6bc 7863 3dbc a624 0b3e 26bf a63d
00000070: e3e5 863d 1706 97bd 5168 babd c91e b9ba
00000080: 60f3 10bd 40de a3bd 52ff 99bd 2f79 abbd
00000090: 8faa 183b e38c a5bd 2590 29bd bb50 183d
000000a0: 0268 a7bd dd20 163d 1c42 c6bd 18b7 013e
000000b0: c712 b33d 4152 1c3e 9741 003c 6baf 163c
000000c0: cf79 05be 54f4 0cbe c424 ee3d 96c1 603e
000000d0: 219d 683e 1643 103e 70b7 023e c46e b1bc
000000e0: b883 173e 4051 d23c e4ce 043e 7fc0 4c3d
000000f0: f158 313d f313 2a3d 7c85 beba b022 9c3d
00000100: 2aae 38bd bc3f e63d dac8 103e 96ff 063e
00000110: 5088 303e e7ac 803d 2456 0e3e 5989 ce3c
00000120: 2d67 283e e98c cd3c 0dd7 42bd ac60 9cbc
00000130: e57e 453e cea5 ba3d 8448 c13c 933e 043d
00000140: 5598 1cbd 577a bd3d 1d65 de3d 9d81 973d
00000150: 6520 5abc daaa 5c3e b289 c33e 770e 753e
00000160: 6c85 dbbb 8759 1cbd d8ad f03d 55cf 0ebe
00000170: 7606 dabd e102 80bd 46cb 073e 979b 13be
00000180: 4d94 c6be 0af3 5cbe f295 09be 7ab8 ba3d
00000190: 498f c5bd ea15 3f3d 229b 1f3e 64a1 1b3e
000001a0: 38a7 2fbd eea9 5abe 80a6 8d3d 608a c23d
000001b0: 65e0 ae3d 1179 8cbe 0716 0b3e 8058 3a3e
000001c0: a661 db3d 347c 9dbd 5cdf b1bd 693f 89bd
000001d0: 3f1f 5fbe 0d26 46be 0af5 57be 9dae 0e3d
000001e0: ac02 a1be d10e f3be 25dc f9be a0eb 9cbe
000001f0: 321a 343e 7b90 513c 3f1c abbd d071 4bbd
00000200: 278c 2d3d 3f6f c2bd 9932 b1bc ce0b 853d
00000210: a9b7 00bd 1a1c d8bc cbcd 06be 8caa 2f3e
00000220: 1b1e a33e bcae c93d 0627 893d 0e4d 763b
00000230: 3d2f 063d d0a5 393e 2506 d83c 881b 693c
00000240: edad 2b3e 95e3 ebbb c383 39bd 677b 0bbe
00000250: 5f08 f2bc 7044 d63e 9207 61bd a11d 883d
00000260: 5c40 663e 471a 103e 2be8 1abe cf8b a1bd
00000270: 8cfe bcbe 03f5 b2be c354 31bd acfd 4cbd
00000280: 5011 a03d 5404 89be 2c0f d6be 682d c5be
00000290: 6b64 ffbc fb9d 0e3e 1401 eb3e 9017 d53e
000002a0: 2374 5f3e f24d 1d3e 98b5 4a3d d451 9fbd
000002b0: a148 2c3d fe38 463d 12d8 983c 08bb cdbd
000002c0: 3fa4 453d baef 823e 6a94 4f3e 1c9f dfbd
000002d0: 3c7c 8d3d 15d5 3cbd e6e1 55be 3d94 5bbd
000002e0: f782 ed3d a65c ae3d 2ba7 75be 664a d1be
000002f0: fc70 69be 1a7a b7bb 4867 6f3e 60ed e43e
00000300: 14a2 0b3f e4ee 8f3e 23f2 ab3c 4b97 bfbd
00000310: 85ed d5bd b18c 7dbd c925 c7bd 5290 4cbc
00000320: a723 cb3c c646 0d3e b399 3e3e bf74 2f3e
00000330: b26b 8abd 3d6e 5cbd 7871 97bd 13dc 27be
00000340: 5d1a a03d 5044 883c 9d59 d23c 9ace 40be
00000350: be6f d7be 9b7f 36be ea56 05bd fe86 173e
00000360: 43f7 a73e 684d 893e 8133 583e 44cf 95bd
00000370: 0825 24be 5a83 dabd bd86 1bbe 9f30 d6bd
00000380: 93d7 16be 2bf6 b0bd 5867 95bd 8e98 88bd
00000390: 2e12 7dbd 30be 233d 6854 983d 4180 95bd
000003a0: 6415 b2bd c3c0 15bd c7a0 e3ba f70e f3bc
000003b0: b6b3 293e f2ac 0b3e b26b 203e bfc6 953d
000003c0: 25d4 1fbd 463c ac3d 07c7 083e 1f44 943d
000003d0: aec0 183d 6188 b73d 397b 8cbc a486 23bd
000003e0: 10a5 fe3d 902a 193d 61ce d9bd e65b 65be
000003f0: c99d 37be cf18 803d a408 a63d f552 c0bd
-0.0075653815 -0.07760396 -0.10097597 -0.11696543 0.11243355 -0.021535303 -0.06221748 -0.21683292
-0.21901587 -0.11413612 -0.09072972 -0.05559747 -0.15494074 -0.18225479 -0.08771664 -0.080499664
-0.07206546 -0.21811028 -0.14851478 -0.09454449 -0.025444347 -0.070802994 -0.11689436 -0.15789953
-0.02621963 -0.01155936 0.13588199 0.081419274 0.06586816 -0.073742084 -0.09101928 -0.0014123555
-0.03538835 -0.08001375 -0.075194016 -0.08372723 0.002329502 -0.08083513 -0.041397233 0.037186366
-0.08174135 0.036652435 -0.09680578 0.12667501 0.08743816 0.15265752 0.007828138 0.009197096
-0.13034748 -0.13765079 0.11628106 0.21948847 0.2271619 0.14088091 0.12765288 -0.021659262
0.1479634 0.025673509 0.12969548 0.049988266 0.04329771 0.04152293 -0.0014535631 0.076238036
-0.04508797 0.11242625 0.14139119 0.13183436 0.17239499 0.062829785 0.13900048 0.025211977
0.16445608 0.025091605 -0.04756837 -0.019089065 0.19286688 0.09113656 0.023594148 0.032286238
-0.038231213 0.0925185 0.108591296 0.07397769 -0.0133133875 0.2154955 0.3819099 0.23931299
-0.0066992547 -0.038171317 0.11751908 -0.13946278 -0.106457636 -0.06250549 0.13261136 -0.14414822
-0.3878502 -0.21577087 -0.13436106 0.09117217 -0.0964647 0.04665176 0.15586522 0.15198284
-0.04288408 -0.21353886 0.06916523 0.09499049 0.085388936 -0.27436116 0.13582622 0.18197823
0.10711984 -0.076897055 -0.086851805 -0.06701548 -0.21789263 -0.19350453 -0.21089569 0.034834493
-0.3144735 -0.47472242 -0.4880077 -0.30648518 0.17588118 0.0127907945 -0.08354997 -0.049669087
0.042369988 -0.09493875 -0.021630572 0.06496392 -0.031425152 -0.026380587 -0.13164441 0.17154902
0.31858906 0.09847781 0.06696896 0.003758255 0.032759894 0.18129659 0.026370117 0.014227755
0.16765566 -0.0071987608 -0.045291673 -0.13621293 -0.029545007 0.4184909 -0.05493886 0.06646276
0.22485489 0.14072524 -0.15127628 -0.078879945 -0.36912954 -0.34952554 -0.043293726 -0.050046608
0.07815802 -0.26761115 -0.4180845 -0.38511205 -0.031175813 0.13927452 0.4589926 0.4161954
0.21821646 0.15361765 0.049489588 -0.07779279 0.04206145 0.048394196 0.018657718 -0.10045439
0.04825234 0.25573522 0.20271459 -0.109190196 0.069084615 -0.04610165 -0.20886955 -0.053608168
0.11597245 0.08513765 -0.23989551 -0.40877074 -0.22797006 -0.0055992724 0.23379242 0.44712353
0.54544187 0.28111947 0.020989483 -0.09355029 -0.10445694 -0.061901752 -0.09724004 -0.0124855805
0.024797274 0.13796529 0.18613319 0.17134379 -0.067588225 -0.05381607 -0.07394689 -0.16392545
0.078175284 0.016634136 0.025677497 -0.18828812 -0.4207744 -0.17822115 -0.03255359 0.14797589
0.32805833 0.2681687 0.21113397 -0.073149234 -0.16029751 -0.106695846 -0.15188117 -0.104584925
-0.14730673 -0.08640703 -0.07295102 -0.066697225 -0.061784916 0.0399763 0.07437974 -0.07299853
-0.08695486 -0.036560785 -0.0017366641 -0.029670222 0.1657246 0.13640192 0.15666083 0.073132984
-0.039020676 0.08409934 0.13357173 0.072395556 0.03729313 0.08961559 -0.0171486 -0.039923325
0.12433827 0.037394106 -0.10635067 -0.22398338 -0.17931284 0.06254732 0.08107117 -0.09390823

conv1.bias f4 [6]
00000000: 89cf da3d c97d 1fbe 1356 34be 2bcd ccbb
00000010: 50a6 65be 6da3 03bf
0.106841154 -0.15575327 -0.1761096 -0.006250044 -0.22426724 -0.5142124

conv2.weight f4 [16, 6, 5, 5]
00000000: ab3a 01bd 5536 0d3d 2ff0 983d 0176 a63d
00000010: 6dea b73c 70b5 a9bd 0063 82ba e25e acbc
00000020: a924 37bd 1a4a 3cbe 6d1d 89bc 733a ce3d
00000030: 5ff0 fa3d b2b8 a53d 4ab4 acbe a236 92bd
00000040: 228a a9bd 3a61 46bb 92a3 9abb 95f8 dabd
00000050: 7e10 cbbc 81ac 0bbb b3a7 b6bd d5bd 9fbd
00000060: 3dee 23be b590 093e b5fa 0e3d 11fe c2bc
00000070: 6143 073d 0442 9a3e 186c 1dbd 62fb 813d
00000080: 6eaf 3d3e 1524 1f3e a64b 233e a775 0abe
00000090: 9795 a53d f286 a33e 9f70 933e 2ced 7e3e
000000a0: 0c5b b5bd 269a f63c 7a7c 123e f61f 0a3e
000000b0: b723 79bd 06ae 96be d143 59bf 6e5e 71bf
000000c0: 8d11 41bf e1c3 58bf 3e8f 6d3a b8cf 04be
000000d0: 3160 803d e7b6 cbbc 71dd 1a3e 05ce debd
000000e0: c3a2 9abd 1b15 d3bd 3751 8cbe 615b 8ebd
000000f0: ecbb a4bd 6a30 01be 5ea9 f83c 86e0 4b3d
00000100: fab5 0fbe ffac 49be 7a3a d13b cc6c 1e3e
00000110: 3f31 1d3e 5cdf b8be 3e26 4fbe 093f 85bd
00000120: a1d4 833e 70dc ca3d 91c3 d2be 1619 48bd
00000130: 38f5 64be ca7b 28be f372 60be 8f6e 6cbe
00000140: c701 10be e45f 8fbe abc1 5fbe 8c8e adbd
00000150: e6f7 f73d 5460 0c3e ad1f 2f3c 08c7 a6bd
00000160: 1e11 c6bd 7a1b 453e 06f4 1c3d b1e7 d23d
00000170: 08ba af3d a69a 543c ea21 b63c ce19 bf3d
00000180: ac04 483e 63fb 923e 7034 743e 9467 32bb
00000190: 3175 a03e 23e7 5bbe b4f0 233e 1d20 0cbe
000001a0: 3f3f c63d e1a8 863e e4e6 aabd 6b14 713d
000001b0: 6765 0c3d 79b3 da3d d150 973e 4ec5 2b3d
000001c0: fd45 d63d 0eae 5b3e 213d c13d 7af3 3e3e
000001d0: fa52 753d 44bb 4ebd 4e86 803d aebf 2f3d
000001e0: 080a 9abe 84ce b5be 6e38 21bf 06c8 47bf
000001f0: 9772 4cbf 5d7e 24be a49a d33d 6d50 85bd
00000200: 83c8 a3bd 6f15 153c 0d0f 893b c3f0 ccbd
00000210: e6dc 3fbe 2286 fe3c 07f5 0f3e 804e 01be
00000220: 343a c8bc 27b6 42bd 4d32 4c3d 117c 393e
00000230: 9f6b 8cbd 7a0f 12bc b89e 013e 3bd3 dd3d
00000240: e740 223d b8ba 22bc 8943 0bbe 9f8c cebd
00000250: 4dad febd 168b d83b e9be 183e dae5 e83d
00000260: ccd8 7c3d 568b b2bc 37cf 40bb c64b 253e
00000270: eaf1 a23c c7be d0bd 23f7 e8bd 37b9 a1bd
00000280: b8d1 553e efc5 26bd fd7f aabd 1e9c 2abd
00000290: cced 38be 73ab 6a3e 0961 be3d e0ca d23c
000002a0: edfb cfbd af1f 38be d398 d73e 653b 783e
000002b0: dcde b03c cc41 863d 6fa0 a1bd 3248 22bd
000002c0: 026a c8b9 2bed 293d 52e6 a53d e5b6 e1bb
000002d0: 691e df3d c1ba ebbd 33cd 8d3b 6b05 133e
000002e0: e5e8 203e 217e a4bc b7e2 25bc 79d6 b23d
000002f0: d6bc c73d 3664 8ebe 7d28 ed3c aa13 2fbe
00000300: 9d30 f9bd 3bb2 35be f6fe dcbd fe7c 323e
00000310: f575 86be 1766 9abe 6589 42bd 334b 143d
00000320: 5a37 f6ba 0a3e bcbd e23f 9ebc e354 59be
00000330: 2d9f 3fbe 7d01 d33d 0d6a fe3d 0741 a43d
00000340: 4868 c5bd 99f4 62be 4d6a aa3e ac12 ac3d
00000350: 342d 9b3d 8da5 ee3d d3c1 073e 65d8 533e
00000360: dbfe df3d 2d3a d33d f38a 663e 0d13 133d
00000370: 5465 2e3e 169f 5e3e 4615 2c3e 7038 0b3d
00000380: c38b 94be d5cd 73bd dd33 0dbe 8b89 3ebe
00000390: 757f 33be 4c93 12be ff20 ec3b 6667 b9bd
000003a0: 6c45 62be 7ea6 19be 21ea 34bd 335a 0a3d
000003b0: 7dd7 83be 5b38 b4be 2ce4 d3bd bb1f 493d
000003c0: ded6 e23d c35e 9abd 3fbd d43c f248 ed3d
000003d0: 2a42 263e efe4 d9bc 6d93 263d 13b7 483e
000003e0: 2a4f 5e3e 0a9c c23d cbb3 e8be b140 d1be
000003f0: 0fae 9dbe 0b96 73bc 1657 d53d 8314 16bf
-0.03155009 0.034475643 0.074676864 0.08127976 0.02245065 -0.082865596 -0.0009947717 -0.021041337
-0.044712696 -0.18387643 -0.016737664 0.10069742 0.122528784 0.080918685 -0.337313 -0.07139327
-0.082783 -0.0030270354 -0.004719206 -0.106919445 -0.024788138 -0.0021312537 -0.08918705 -0.077998795
-0.1600885 0.13434108 0.03490706 -0.023802789 0.033023242 0.3012849 -0.038433164 0.063467756
0.18523952 0.15541108 0.15946826 -0.13521443 0.080851726 0.31938893 0.2879686 0.24895161
-0.088552564 0.0301028 0.14305297 0.13488755 -0.060825076 -0.29429644 -0.84869105 -0.94284713
-0.75417405 -0.8467389 0.0009062177 -0.12969863 0.06268347 -0.024867488 0.15123536 -0.10879139
-0.075505756 -0.1030676 -0.27405712 -0.06951023 -0.08043656 -0.12616125 0.030354198 0.04977467
-0.14034262 -0.19694899 0.006385145 0.1547119 0.15350817 -0.3610791 -0.20229432 -0.065061636
0.2574816 0.09905326 -0.4116483 -0.04885205 -0.22359169 -0.16453472 -0.2191885 -0.2308905
-0.14063178 -0.28002846 -0.21851222 -0.08474454 0.1210783 0.13708621 0.010688704 -0.08143431
-0.096712336 0.19248763 0.038318656 0.10298098 0.085804045 0.012976324 0.022232968 0.09331094
0.19533032 0.28707418 0.23848128 -0.0027222382 0.3133941 -0.2147489 0.1600979 -0.13684125
0.09680032 0.2630072 -0.0834482 0.058857363 0.034276392 0.10678763 0.29553846 0.04193621
0.10462568 0.21453115 0.094354875 0.18647566 0.059893586 -0.05047156 0.062756166 0.04290741
-0.30085778 -0.3550912 -0.6297673 -0.78039587 -0.7986235 -0.16063829 0.1033223 -0.065094806
-0.07997229 0.009099348 0.0041827024 -0.10006859 -0.1873661 0.031069819 0.14058314 -0.12627602
-0.024441816 -0.047536995 0.049852658 0.18113734 -0.068564646 -0.008914823 0.12658203 0.10831305
0.039612677 -0.0099322125 -0.13599981 -0.10085415 -0.12435398 0.006608377 0.14916576 0.11371966
0.06173019 -0.021794956 -0.0029420385 0.16142187 0.019890744 -0.10192638 -0.113752626 -0.07896655
0.20880783 -0.040716108 -0.08325193 -0.04165279 -0.18059462 0.22916965 0.09295852 0.025731504
-0.10155473 -0.17980836 0.42108783 0.24241407 0.021590643 0.065555185 -0.078919284 -0.039619632
-0.00038225955 0.041485947 0.08100571 -0.006888258 0.10894472 -0.1151023 0.00432744 0.14357536
0.15713842 -0.020079674 -0.010124854 0.08732314 0.097528145 -0.2781083 0.02894997 -0.17097345
-0.121674754 -0.17743771 -0.107908174 0.17430493 -0.2626187 -0.30156013 -0.04749431 0.036204528
-0.0018784807 -0.091915205 -0.019317571 -0.21223788 -0.18713064 0.10303018 0.12422571 0.080202155
-0.09639031 -0.22163619 0.33284226 0.08401999 0.07576981 0.1165267 0.13257532 0.20688017
0.10937282 0.103138305 0.22513942 0.03590684 0.17030841 0.21740374 0.1680499 0.03398937
-0.2901288 -0.05952247 -0.13789316 -0.18607156 -0.1752909 -0.14314002 0.007206082 -0.09052925
-0.22096795 -0.15004918 -0.044168595 0.033777427 -0.25750342 -0.35199246 -0.10346255 0.049102526
0.11076139 -0.075376056 0.025969146 0.11586179 0.16236177 -0.026598422 0.04066794 0.19601087
0.21709886 0.09502418 -0.4544967 -0.40869668 -0.3079686 -0.014867316 0.10417001 -0.5862505

conv2.bias f4 [16]
00000000: 7b5d 9dbe 2521 0e3f 0520 a33e 9491 f6bd
00000010: 451b 8d3e 08b8 29bf 5cfb a43e 4bf5 22bf
00000020: 0b39 d33e b9ca 2cbd 8046 1d3f b760 70be
00000030: 72d8 903e c10f a7be f010 343f e242 a9be
-0.30735382 0.55519325 0.31860366 -0.120394856 0.27559868 -0.66296434 0.32223022 -0.6365554
0.41254458 -0.04218552 0.614357 -0.23474394 0.28290135 -0.32629207 0.70338345 -0.3305884

fc1.weight f4 [120, 400]
00000000: 88a7 52bd 08f3 7a3c 8e34 91bd 5d35 86bd
00000010: e0d2 06bd e657 5dbd 8729 193d 72e1 98bd
00000020: ce66 b9bc 7495 2bbd 7d8d cb3c 5c9f d4bc
00000030: 5c40 cfbd 97b3 1dbd f53e 98bc 84e7 a33c
00000040: 7b7a 213c cd90 45bc a4fb e9bc 462d 9ebd
00000050: f923 1d3c 424a 94ba 161d 24bd 3de2 19bd
00000060: 3581 00bc b16f 0f3d 0612 03bd b744 183c
00000070: d3ad 403b 82f2 85bd 33fc 6abd bbe0 0abc
00000080: e82c 5fbd 3ade 29bd ac97 e0bc 0135 493c
00000090: e8cb 2a3c 2762 9fbc acdf a43b 7cf6 a4bc
000000a0: 2830 c3bc 91c1 003d c640 2cbd 11ac 5ebd
000000b0: 7d10 8fbb cd8d 8bbd f8c4 43bd e262 40bc
000000c0: 7890 18bd f016 49bd a6ef 22bd 7450 65bd
000000d0: bb28 d83c 89e0 52bc 9e30 1fbb d78e 2dbc
000000e0: c83c 8739 aa6a cbbc d008 83bc dcdc 34bc
000000f0: 1406 903c 35e1 8ebd b68a d9bc a569 93bc
00000100: e711 d3bc 486e 20bd 5e33 15bd 4791 c6ba
00000110: 40f1 f73a 5dda 8cbc 2909 463c a051 17bc
00000120: 6225 0d3d 92ad 09bd 1fd9 79bd e202 823c
00000130: 53b5 3dbc 6864 9c3b b909 c1bc c7a7 e8bc
00000140: 2d00 173d 9b47 34bc d097 833c e76e 1dbd
00000150: b2ae 41bc 5548 38bd f1c1 0f3d fa9e 9a3c
00000160: f26b 163d 0c69 51bc 2981 5dba 188f de38
00000170: ded9 0fbd 139c 363d 8508 3c3d f73d 34bd
00000180: ae06 233c 5d81 d0bc ad98 41bd 5028 00bb
00000190: 25d4 29bd 8784 923c 1fcc 773b 0c1f 22bd
000001a0: c4e7 febc 8fe0 24bb d76a ab3a 2984 083c
000001b0: 97a2 27bc 6b05 aebc 46ee 90bd 8edf 5cbd
000001c0: 88f5 8b3c 33fb d03b 0cf9 3dbd a2a9 6fbd
000001d0: a63a 453c 41ca 80bc d2e1 c9bb 48c1 c3bc
000001e0: d728 c33c e937 e1bb af61 2a3d efc2 1fbd
000001f0: 4c82 69bd ba9d 7c3c 2d63 d0bc 7518 90bd
00000200: 8bec 8abd fd42 2c3c f904 07bd 8ca7 c7bc
00000210: f70a 1bbd edf2 5f3b 43e4 6c3d c20b 0a3c
00000220: 708b ed3a 2a36 543c f748 e83b 7b7f 3a3d
00000230: 1002 57bd fbc4 adbb b609 fcbc 1522 1fbd
00000240: e145 80bc dd0a c2bc e334 23bd 70b8 f33c
00000250: 1bf0 7ebc 53b3 10bc cf58 b53c 6831 6d3a
00000260: 3d24 8bbc e028 00bd 0458 8cbd 8e1b 3c3c
00000270: 2abe 3b3c 0ac4 2ebd bbfe a33c b5ee ddbc
00000280: 5846 0d3d b281 66bd 0caf 72bd 8946 45bd
00000290: 5480 74bd b30f 593d 9ca8 0bbc f3e5 69bc
000002a0: f70f a5bc ad26 3eba 0c6d 5a3d a6e0 3c3b
000002b0: 9d81 76bd 7493 7bbd 165a a73c b5f7 acbc
000002c0: ec80 f03c e81a 9dbc cba0 06bd c541 c1bc
000002d0: c9b0 45bd 1860 fa3c a237 8cbd 50ee e63c
000002e0: 9c90 6cbd 366f 173d 9a4d eebc edc4 cb3c
000002f0: 0dcb 45bd c992 67bd fb31 21bd b336 45bd
00000300: 793f 10bc 50f8 13bd 2a3d 08bb 3e3f 893c
00000310: 9df2 083d ec03 a03c aa87 bbba e0bd eb3b
00000320: d7b3 77bd dcac 1ebd a4c0 86bd 9acb b33b
00000330: 29c7 80bd 0887 01bd 4958 a0bc aeb1 59bd
00000340: dccc fabc 315e 3cbd 28a5 9e3c 839f 6a3c
00000350: 8d43 a5bb 9998 83bd afe6 19bb 7378 3bbd
00000360: 261c dcbc 51c5 10bd dcf4 43bc 4a5c 1f3a
00000370: 7f09 e1bc 0dad 9cbd 231a 1b3c 40a4 29bb
00000380: a6c7 783c 6f04 2f3c 944f 243c 16a6 233c
00000390: a983 2abd 465e 73bc bcc3 fdbc 72b1 8dbd
000003a0: 7d8b 0e3d e3ed d2bb dcfd 0b3d 7ca7 99bd
000003b0: a0c2 b0bd a761 a4bb 56ad bfbc 18ce 7b3c
000003c0: 22fb 8cbd 0f23 49bd d040 40bc 0d92 123d
000003d0: 7db2 c23c 9f6a babd f010 79bd c607 9c3c
000003e0: 757b 49bc 7851 f7bc 4517 f3bc 1b19 e33c
000003f0: 3e76 f63b dd0b 2a3c 7e6b 513c 9f47 03bd
-0.0514293 0.015316732 -0.07090102 -0.06553147 -0.03291595 -0.054038905 0.03739312 -0.07464875
-0.022632029 -0.041890576 0.02484774 -0.025954895 -0.101196975 -0.03850135 -0.018584708 0.020007856
0.009855862 -0.012058449 -0.028562374 -0.07723479 0.009591096 -0.0011313634 -0.0400668 -0.037569273
-0.007843305 0.035018627 -0.03199961 0.009293727 0.0029400482 -0.06540395 -0.057369422 -0.0084764315
-0.054486185 -0.041471697 -0.027416073 0.0122807035 0.010424592 -0.019455982 0.0050315466 -0.020137064
-0.023826674 0.0314346 -0.04205396 -0.054363314 -0.004365979 -0.06814156 -0.047795266 -0.0117423255
-0.03724715 -0.04909414 -0.039779328 -0.05598493 0.02638661 -0.012870916 -0.0024290453 -0.010593138
0.00025794492 -0.024831135 -0.015995413 -0.011038985 0.017581023 -0.069765486 -0.0265554 -0.017994711
-0.025765372 -0.039167672 -0.03642594 -0.0015149497 0.0018916503 -0.017193967 0.012087145 -0.0092357695
0.03445948 -0.033612795 -0.06099808 0.015870515 -0.011578876 0.0047727115 -0.023564206 -0.028400315
0.036865402 -0.0110034 0.0160636 -0.038435843 -0.011821436 -0.044990856 0.035097066 0.018874634
0.03672404 -0.012781393 -0.00084497273 0.00010612438 -0.035119884 0.044582438 0.045906562 -0.044004407
0.009950323 -0.02545231 -0.047264744 -0.0019555278 -0.041462082 0.01788546 0.0037810875 -0.03958039
-0.031116374 -0.0025158261 0.0013078105 0.008332291 -0.0102316355 -0.021242818 -0.07076697 -0.053924136
0.017084852 0.0063776015 -0.046380088 -0.058511384 0.012037909 -0.015721442 -0.006160953 -0.023895875
0.023823185 -0.00687312 0.041597065 -0.039004263 -0.057009026 0.015418464 -0.025437916 -0.07035915
-0.06783398 0.010514018 -0.032963727 -0.024371885 -0.037852254 0.0034171895 0.057834875 0.008425655
0.0018123221 0.012952367 0.007088776 0.04553173 -0.0524922 -0.005303023 -0.03076635 -0.038850863
-0.01565832 -0.02368682 -0.03984536 0.029751033 -0.015560175 -0.008831817 0.022137074 0.00090481946
-0.016985053 -0.03128898 -0.06852725 0.011481179 0.011458913 -0.042667426 0.020018926 -0.027091363
0.034490913 -0.05627603 -0.05924897 -0.04816297 -0.059692696 0.052993488 -0.008524086 -0.014276016
-0.020149214 -0.0007253688 0.05332665 0.0028820424 -0.060182203 -0.06141992 0.020428699 -0.02111421
0.02935835 -0.019177869 -0.032868188 -0.023590932 -0.0482643 0.0305634 -0.068465486 0.028189808
-0.057755098 0.036971293 -0.029089738 0.024874175 -0.048289347 -0.05653647 -0.039354306 -0.04814787
-0.008804196 -0.03612548 -0.002078841 0.016753789 0.0334345 0.01953312 -0.0014307399 0.0071942657
-0.060474243 -0.03873907 -0.06579712 0.0054869177 -0.06287987 -0.031622916 -0.019573348 -0.053147964
-0.030615263 -0.045988265 0.019365862 0.014320257 -0.005043453 -0.0642559 -0.0023483445 -0.045769166
-0.026868891 -0.035344426 -0.0119602345 0.0006079121 -0.027470348 -0.07650194 0.009466681 -0.0025885254
0.015184319 0.010682209 0.0100287385 0.009988328 -0.041629467 -0.0148540195 -0.030977122 -0.06918611
0.034800995 -0.0064370497 0.034177646 -0.07502648 -0.08630872 -0.005016524 -0.023398083 0.015368961
-0.06883837 -0.0491057 -0.0117342025 0.035783816 0.02376675 -0.091023676 -0.06080717 0.019046675
-0.012297501 -0.030190215 -0.029674182 0.027721932 0.00752142 0.010378805 0.012781976 -0.032050725

fc1.bias f4 [120]
00000000: f0ad 87bd e8b0 8c3e f2f2 523f 5028 41bd
00000010: f03d 7fbd a96d 55be bfc9 653e 2ed0 0b3b
00000020: d612 813d 86e8 11bc ac91 3cbc 15fb a6be
00000030: ca16 6c3e 971e cebd cfbe 44bd c478 b73e
00000040: 7503 393e cb23 dabe 626e 65be 2876 83bc
00000050: 4292 18bd 4dbe 85bd ce2b 7dbe b0fb 9bbd
00000060: da98 3dbf c83f 7dbd 922e f43c 9c59 25bd
00000070: 46b8 c43e 2355 85bc fc68 86ba bc53 9fbd
00000080: b990 943e 6e9c a5bc 29a4 863d 4f72 70be
00000090: 08e4 1839 f200 c33c 81ec d1bd 0bf8 f1bd
000000a0: 9eec d33e 904a d8bb 1c06 34bf 5353 053e
000000b0: b9ed 25be cd3d 9a3e 017b 42bd 50d4 17be
000000c0: f090 b2be 33a6 25be ff41 4b3d ed15 87be
000000d0: 259d c8bb fbe2 19be 0f38 603f 74b6 b3be
000000e0: 2183 05be 17f9 003f f122 743f 73b8 073f
000000f0: 8302 3fbd 1f81 d3bb 953a bbbe 4be6 4abd
00000100: a3eb 35be 9277 cabc b82d 5e3e 94ed 003d
00000110: fd90 563f bd67 25be 4c1a b53d 25b9 34bd
00000120: a76e 07bd 1e75 0539 f1af 1dbe 4445 3e3e
00000130: f165 7ebc 1658 babd 217a f8bd b1b6 2abd
00000140: 255a 5ebd e0ac 203b 07c6 61be b648 c7bd
00000150: f7e8 1fbe 8271 c9be 7286 c03e 1570 1ebd
00000160: 97fb 64bd f138 18be 9a86 94bd ec7e 49bd
00000170: 6738 bfbd 0a6c 593f 726d 0cbd 6f8e 5c3f
00000180: bd4e 213f 5c42 db3e 2f00 09be 3168 643e
00000190: f185 073f d39d 0fbc cf0e 403f ad77 503d
000001a0: 07dd 98bd f3e7 fa3e 167b 703e 7880 ddbd
000001b0: f7ee 513f 4582 f13d 4202 b0be b645 7cba
000001c0: 1520 c1bb 53b2 743f 3e0e 87bd a86d ddbc
000001d0: 3022 543e 77f9 b1bd 9ee6 a2bc 1db6 fcba
-0.06624973 0.2747872 0.82401955 -0.047157586 -0.062314928 -0.20842613 0.22440241 0.0021333802
0.06302421 -0.008905536 -0.01150934 -0.32613435 0.23055568 -0.10064428 -0.04803353 0.35834324
0.18067725 -0.42605433 -0.22405389 -0.016047552 -0.037248857 -0.065304376 -0.24723741 -0.07616365
-0.7406136 -0.061828405 0.029807363 -0.04036866 0.3842184 -0.016275948 -0.0010254676 -0.07779643
0.29016665 -0.020216193 0.0657428 -0.23481105 0.00014580798 0.023804162 -0.10250188 -0.118148886
0.41391462 -0.0066006854 -0.7032182 0.13020067 -0.16203965 0.30125275 -0.047480587 -0.14827085
-0.34876204 -0.16176681 0.049623486 -0.26383916 -0.0061222487 -0.15027992 0.8758554 -0.35100138
-0.13038303 0.5038008 0.95365816 0.5301582 -0.046633255 -0.0064546014 -0.36568132 -0.04953603
-0.1776567 -0.024715219 0.21697128 0.031476572 0.83814985 -0.16152854 0.08842906 -0.04412188
-0.03306451 0.00012727498 -0.15399148 0.1858111 -0.015527234 -0.09098832 -0.12132669 -0.041678134
-0.054285187 0.0024517104 -0.22048198 -0.097306654 -0.15616213 -0.39344412 0.37602574 -0.03868111
-0.055903997 -0.14865471 -0.07252236 -0.049193308 -0.0933693 0.8493048 -0.034284063 0.86154836
0.6301077 0.42824066 -0.13378976 0.22305371 0.52938753 -0.008765656 0.75022596 0.05089538
-0.074640326 0.49005088 0.23484454 -0.10815519 0.82005256 0.11792425 -0.34376723 -0.0009623425
-0.005893717 0.955846 -0.06594513 -0.027029827 0.20716166 -0.0869016 -0.019885357 -0.0019280348

fc2.weight f4 [84, 120]
00000000: f6d9 97bd 3527 7bbe 0997 0ebf 4092 4f3c
00000010: 3b30 8bbd 9099 773d 28b2 fb3d e3e4 b23c
00000020: a64b 433e 3ef9 8ebc 73e2 033d 69bb fabd
00000030: 8b72 153d 7bf2 76be 1003 fb3c 7c4d 2f3e
00000040: 9897 033e 5da4 94be db89 01be c5be 453d
00000050: 8cfa f8bc dd4b a739 7c8d 83be 05f9 973b
00000060: edb7 563c 60f4 26bd 67dd 193e d976 d33a
00000070: 074d 8f3d 3818 07bd 7083 723c 68ed 0dbc
00000080: 795d ab3e 2b3c 26bb f704 d33d 5255 a83d
00000090: 38b5 a1bd 8138 e03d 4d36 a6bb bb67 85bd
000000a0: aec5 3a3e 2bb0 45bc 2c88 59be b071 87be
000000b0: 3301 3b3e d714 58be 3e49 8d3d 8de2 c7bd
000000c0: 2d64 f5bc e542 64bd cc26 853d 9b48 943e
000000d0: 07bb 62bd 1a7d 7abe a85f c7be d198 cabe
000000e0: c8cd c4bd f199 4ebd f0f7 c6bd 2352 75be
000000f0: 2067 4b3d 1091 883b c48a f2bd f30f b7bd
00000100: ce95 203c ebb9 8e3d 74ee 91bd 3662 21be
00000110: 49eb f6be 21f6 c83b 417d 753e 2d79 80bc
00000120: ac6d 0abc 19e9 e9bb 2063 823e c948 a0be
00000130: a9b2 6cbe afa7 a7bd 5656 f5bb fd86 8b3c
00000140: 4f97 4a3e 3e5a 4cbd 220e f6bd ab06 08bb
00000150: 5ced c93c c328 eb3c 6f76 173d cd39 99bd
00000160: 87f2 073d 0901 5dbd e0d7 5fbe 300b 5f3d
00000170: a0f0 383d 2e89 cfbd 27e5 003d f2fc b9bd
00000180: cca0 b23d 437f c0bd 32ee 8c3d 4331 f93d
00000190: 4053 66bd 0dd3 6ebc 31f9 7c3d c1fe bf3a
000001a0: 49fe ff39 6165 a53e af5b 73bd 3d00 6abd
000001b0: 106b 373d c844 01bb 2c49 a6be ef70 b1bd
000001c0: 9092 92bc 315a 633e 7c16 2b3d f548 0cbd
000001d0: 59e1 24be 622d 3bbd dff5 07bc cf9d f1bc
000001e0: 5303 b83d a3c9 a4be a510 463e 811a 6e3d
000001f0: 5b25 9dbc 1b4a 483d 4b56 1bbe 3d33 66bd
00000200: 3485 00be f043 80bc 58c8 d83c 8c1e 02be
00000210: 88a8 ec3d 1194 fbbc fe5d 8ebd 9f3d 29be
00000220: 5a43 bdbc 408a 323b 3320 85bd ae87 333d
00000230: ff67 dc3d 7bb6 6bbd 5c37 b13e 5daa 073a
00000240: b9a1 34be ce24 ff3c 4639 fa3d 3e0e 943d
00000250: 69fa 893d 6869 10be f34a 14be 372e f93c
00000260: fb96 74bd acf4 b1bd c1c2 6bbe a335 08be
00000270: 16cc e33d aaca 1bbe c337 9d3d d24a 0dbd
00000280: df04 b0bc fd7a 773d 4057 8cbc 9047 2cbe
00000290: a745 66be 57f8 c83d 108e e93c 583a ffbc
000002a0: acc6 66be f04f ad3d f67f b93a 92a0 86be
000002b0: 23fd d7bd 1fb7 0f3e 2b10 883e 5394 72be
000002c0: e732 b13e 96fd 5bbd 5652 fd3d 7753 53bd
000002d0: 8ba2 bc3d 00ec 8a3c dd70 eebe ee51 4bbe
000002e0: c8c7 853d b0a2 813d 130c 503e 4715 293d
000002f0: 16c6 3abe df55 ffbd 624a 1cbe c286 f8be
00000300: a533 e33d cb8e c6ba 3b29 8a3d b49a 1fbf
00000310: 4c54 83be 4a13 65bc f7d9 573d 1b3d 72bd
00000320: f06b 003d 49f0 a33d 0cff ec3d 470b 6ebd
00000330: 68b0 3a3e 7fc7 523e 35f8 8a3e 8aec 8ebd
00000340: 7cc0 b6bd e999 39be 6d5c 90bb 5336 e5bb
00000350: 6699 b1bc bec0 bbbd 6136 5e3d 4505 83bd
00000360: 0e0e 08bf c4f6 193e 2bb2 b2be 0616 1e3d
00000370: 1020 97bd d256 36bd 3eaa a3be bd64 f13c
00000380: 0412 fe3d 766a 26bf 7d21 80be e4a3 d93d
00000390: c07d 1e3e f837 913d 8cd8 c1bd b9c8 413e
000003a0: 82d0 73bd 6a17 353e 0a1b 573d a6db 85bd
000003b0: 5482 a0bd cd7b e0bb 7813 a93d c317 3abb
000003c0: 1946 b5bd bcae 92bd 3d43 03be be09 6a3d
000003d0: 86c1 94bc 8e2e a23b 9f62 79bd 245a 233b
000003e0: 35e2 e0bc fd4e bdbc 3508 25bd 1c47 febd
000003f0: 9cd9 a3bb df29 0fbe fdb8 f23b b805 4dbe
-0.074146196 -0.24526675 -0.5569921 0.012669146 -0.067963086 0.060449183 0.1228984 0.021837657
0.19071826 -0.017452832 0.03219838 -0.12242777 0.03648619 -0.24115936 0.030641109 0.17119402
0.12850797 -0.2903165 -0.12650244 0.048277635 -0.030392908 0.00031909245 -0.25693882 0.0046378397
0.013105375 -0.040760398 0.15025865 0.0016133442 0.06997114 -0.03298208 0.014801845 -0.008662559
0.3346975 -0.0025365453 0.10303681 0.082193986 -0.07895893 0.10948277 -0.005072391 -0.06513926
0.18239471 -0.0120659275 -0.21243352 -0.26453924 0.18262176 -0.211017 0.068987355 -0.09760008
-0.029954994 -0.055727858 0.065015405 0.28961644 -0.055354144 -0.24461785 -0.38940167 -0.39569715
-0.09609562 -0.05043978 -0.09715259 -0.23957114 0.049658895 0.0041676834 -0.11842874 -0.08938589
0.009801341 0.06969055 -0.071255594 -0.15760121 -0.48226383 0.0061328565 0.23973562 -0.015682781
-0.008448999 -0.007138383 0.2546625 -0.3130553 -0.23115028 -0.0818628 -0.0074870987 0.01703214
0.19784282 -0.04989075 -0.12014414 -0.0020755928 0.024649315 0.02870596 0.03697818 -0.07481728
0.033190276 -0.053956065 -0.21859694 0.05445403 0.045151353 -0.10133587 0.031468537 -0.090814486
0.08722076 -0.09399273 0.0688137 0.12167599 -0.056231737 -0.014576686 0.061761085 0.0014648066
0.00048826847 0.32303908 -0.05941361 -0.057129133 0.044779837 -0.0019724835 -0.324777 -0.086641185
-0.017892152 0.22202374 0.04176949 -0.034249265 -0.16101588 -0.045697577 -0.008298366 -0.029494194
0.08985009 -0.32185087 0.19342287 0.058130745 -0.019182852 0.048898797 -0.15169637 -0.05620121
-0.12550813 -0.015657395 0.026462719 -0.12706965 0.11555582 -0.030710252 -0.06951521 -0.16527413
-0.023103405 0.0027243048 -0.06500282 0.043830566 0.10762023 -0.057547074 0.34612548 0.00051752274
-0.17639817 0.03114548 0.12217955 0.07229279 0.06737215 -0.1410271 -0.14481716 0.030417545
-0.0597143 -0.086892456 -0.23023511 -0.13301711 0.11122911 -0.15214029 0.07676651 -0.034495182
-0.021486698 0.060420025 -0.017131448 -0.16824174 -0.22487508 0.09812992 0.028510123 -0.03115575
-0.22536725 0.084625125 0.0014152515 -0.2629438 -0.10546329 0.14034699 0.26574835 -0.23689394
0.34609148 -0.053708635 0.1236922 -0.05159327 0.0921069 0.016958237 -0.46570483 -0.19855472
0.06532246 0.06329858 0.20317106 0.041280057 -0.18239626 -0.124675505 -0.1526275 -0.48540312
0.11093835 -0.0015148757 0.06746145 -0.62345433 -0.2565025 -0.01398165 0.0526981 -0.059140306
0.031352937 0.08004815 0.11572084 -0.058116224 0.18231356 0.20583914 0.27142492 -0.0697871
-0.08923432 -0.18125118 -0.0044055493 -0.0069950013 -0.021679591 -0.09167622 0.05425108 -0.063974895
-0.53146446 0.1503554 -0.34901556 0.038595222 -0.07379162 -0.044516392 -0.31965822 0.029466981
0.1240578 -0.65006196 -0.2502555 0.10626963 0.15477657 0.07090753 -0.09465131 0.18924226
-0.05952502 0.17684713 0.05251602 -0.06536035 -0.07837358 -0.0068506957 0.082556665 -0.002839551
-0.08851261 -0.07162234 -0.12818618 0.057138197 -0.018158685 0.0049493974 -0.060885068 0.0024925554
-0.027451614 -0.023108954 -0.04029103 -0.12415907 -0.0050003063 -0.13980816 0.007407306 -0.20021713

fc2.bias f4 [84]
00000000: df64 323f 1733 063f 38d8 1abd c698 373f
00000010: f254 193f fdd3 c33e be67 503e ab95 823e
00000020: fd48 22be c3f6 aabe fefb 27bc 6672 42be
00000030: 8cd6 05be 2014 bf3e 4c08 bfbe 975e ffbd
00000040: c864 97bd 2340 e13e abb7 c2bd d828 b8bd
00000050: 580c 4cbd 1775 e3be 03f5 c4ba 0013 24be
00000060: f1dc 13be b90b 93be 4d96 283d e409 9ebe
00000070: fad8 cd3e 67df 26be 593c b5be fa1c febc
00000080: 8fbc 0c3e fd8e a93e c5ca 7cbe 2fe3 f3bd
00000090: 6581 08be 7fe2 553f 0c31 ccbe 19af 053f
000000a0: 9743 db3e b1d8 403f ccaa 42be 6a9e 11be
000000b0: ca62 193f 96cb 8abe f8b3 b8be 2ec0 bbbd
000000c0: 2626 9bbe aece 9b3e 62f1 72be b1a7 b2bd
000000d0: 7117 6e3d afc1 bbbe 02e2 d3be 7d76 7a3e
000000e0: bea7 c83c 7bcd 4cbd 5e3f 03be 06f4 8cbe
000000f0: e132 313e 56b7 7c3f 84ed 09be 27ba fb3d
00000100: 9f57 c9be 86a1 7d3b b1d6 f53e d69c 39be
00000110: f0b7 163e a87a 1ebe cd26 703e d065 9dbe
00000120: a174 063f 44c6 b6bd bb08 243f 4719 503f
00000130: a6b7 073e 9761 803e 79ac 403f 190f 3abe
00000140: 0d9d d4be 4d75 d13e 5a19 db3e 8abc 31bf
0.6968517 0.52421707 -0.03780386 0.7171749 0.5989524 0.38247672 0.20352075 0.25504813
-0.15848155 -0.3339139 -0.010252951 -0.18988952 -0.13070124 0.37320042 -0.37311018 -0.124692135
-0.073922694 0.43994245 -0.09507688 -0.08992165 -0.04981646 -0.4442527 -0.0015026632 -0.16022873
-0.14439751 -0.2871988 0.041158963 -0.3086692 0.40204602 -0.16296159 -0.35397604 -0.031019676
0.13743804 0.33116904 -0.24686725 -0.11908566 -0.1333061 0.8354873 -0.3988117 0.522203
0.42825004 0.75330645 -0.19010466 -0.14220586 0.59916365 -0.2710845 -0.36074805 -0.09167515
-0.30302542 0.30431122 -0.23724893 -0.08723391 0.058127824 -0.36671206 -0.41383368 0.24459262
0.024494048 -0.05000065 -0.12817141 -0.27529925 0.17304565 0.9871725 -0.13469511 0.12291365
-0.39324662 0.0038701012 0.4801536 -0.18126234 0.14718604 -0.15476477 0.23452301 -0.3074174
0.5252171 -0.08924535 0.6407582 0.8128857 0.1325365 0.25074455 0.7526317 -0.18169822
-0.4152607 0.40909806 0.4279278 -0.6942831

fc3.weight f4 [10, 84]
00000000: 3b48 8a3d 7a5e f8bd 6e8d 83bb c3b9 a9be
00000010: c5f4 8cbe b3f6 b7bd 3ab2 aa3d e181 b2be
00000020: ee77 4fbf bbd5 aabe c43a 34be 7636 9cbd
00000030: 5fc8 fcbe d9b1 1cbd e71d 60bf 0e7b f7bd
00000040: 2785 07bd b617 ccbd 81e0 45be 4862 c2bd
00000050: d1b2 18be ee25 c2bd 80f5 873d 7882 49bd
00000060: cfac 70be 0cc1 bebe 107c b0be 35b5 56bf
00000070: e562 543c c40c 22be 40c8 1ebf 3ae9 0cbf
00000080: 0608 1a3d b0a4 163d 47de 34be 3a94 5ebd
00000090: 0074 e8be ed95 b5be f4ad 01be 3388 38bd
000000a0: e649 0d3d 81be 3abe 4e46 2abd f48e ffbe
000000b0: 135f 1dbc ed83 ffbe 4d2d 17bf f504 c3be
000000c0: 359c 96bd 6cbd 23be 80b3 adbe 68f1 91bd
000000d0: a073 92bd 9103 f9be 3007 18bf c889 52be
000000e0: 458e 96bd 17f2 fcbd 9019 6abc 95ce a4bd
000000f0: f4ff afbe cfd4 a4be 718d 34bf 3422 153e
00000100: f551 1cbf 9c0b 68be fa8f 8b3d 9fc2 d9bc
00000110: aaea 903d a6a3 f2bd 31e9 9cbe 9f4b 863d
00000120: 32db 14be 4a14 e5bd c9f5 9c3d 956a 74bd
00000130: e721 52be 3840 023d 15f8 59bd 8bf9 183e
00000140: c366 1cbf 02f6 ca3d 534c 173d 5f4f 3ebe
00000150: 1a3f b0bd 8e20 08be 1a45 33be 53fc 69bb
00000160: 6491 11be 1a9e 82bd b1e7 5d3d 3b1e a9bd
00000170: ae4b 0dbf 3c56 073d 9570 c3be 89ca 30be
00000180: 3747 17bf 47e7 943d 6900 11be d94b 43bd
00000190: d78c e4bd 33bf d5bc 480e 0ebf c2b8 0dbf
000001a0: 80e4 adbc 2a48 91be 44bf 623d 79e5 23be
000001b0: fe61 2fbf e772 33bf f6d1 28bf e3ed 23bf
000001c0: d778 94be 7821 c4bd 5d98 edbd 2b56 c1bd
000001d0: ce18 82be 9771 a6be 22ca dbbe 978d 6f3d
000001e0: f929 98be 537e 64be 5ae1 9dbe 805e b6be
000001f0: 1009 e5bd 7059 0dbf f0ab a9bd 74ac 4c3d
00000200: 5864 55bd 8077 aebe c0bc febe 72f4 4fbf
00000210: dac2 7b3d 64b6 b6bc acb6 9dbe bcc3 303d
00000220: 6aea 203e a7ba 50bf 195e 16bf 4b75 bbbe
00000230: ee2c 52be db16 e1bd 0177 08be 3509 f6bd
00000240: c70d 77be 0315 42bf b455 7bbe cb44 033e
00000250: 63aa 12bf 31c6 adbc ab3e 4fbe e58f ddbd
00000260: 828e 8e3d 08e0 bebe cf7b d2be e153 d73d
00000270: 83e4 50bd 85e8 573e 2c8b 10bf bca9 f1be
00000280: 7da1 5a3d 6066 05bd bf8b c5bd 35ea a2be
00000290: 81cc 26bf 6549 7ebd 27be 9ebe 44ea b4be
000002a0: 7a87 adbc 1801 073e 41b7 14be af21 563b
000002b0: 74e4 3b3d 63ac d7bd 49ce b7bd e693 5abe
000002c0: 4308 0dbf 7e52 96be 9c1a b0be 0dd6 67bc
000002d0: cdfa d1bd 6fbe a5bd ae5c 77bf 54f0 84bc
000002e0: 74d0 35bc 3d2f 18be 57b6 adbe 9858 eebd
000002f0: 300a 79bc 7682 20be 4be3 a8be 4438 39bc
00000300: 1f06 fd3c 5502 a0be 4061 04bf 7898 13be
00000310: 44c4 adbd 2255 79be 97d8 aabe af58 b6be
00000320: 570c 3b3e df68 bcbd e7f6 07bf a912 debe
00000330: dcd0 95bd 376c d7bd af0f 39be 4035 6dbd
00000340: 7354 95bd 9c1f ba3d 17ce 8bbd 58d5 adbe
00000350: 70b9 b43d 09d0 34be 9f7d e2be 905b 07bf
00000360: 413a 27be 8ba4 87be 5ee7 83be 0561 473d
00000370: 58f5 d7bd 1092 9ebe 4b44 9cbe 9a0f 623d
00000380: deab 3cbd 5013 b1be 41a3 05be 3905 663d
00000390: f5b2 c3bd b801 333b caeb 56bf 1480 85bd
000003a0: ec4f cabe aeb2 1bbf 9952 c73d 7169 32be
000003b0: ff86 babd 267d 853b 2eb6 a1bc 589c 21be
000003c0: 3dda 09be be33 13bf c866 ea3c 3a26 0bbc
000003d0: 446d 8bbe af72 11be 759f 673c 2de9 18bd
000003e0: a0f1 a2be 7227 16be 0e41 adbd f3a2 9cbe
000003f0: 0e86 ebbe a153 d2bd cd3c e9bd 6c44 ec3b
0.06752058 -0.12127395 -0.0040146625 -0.33149537 -0.27530494 -0.08982601 0.08334775 -0.34864715
-0.81042373 -0.33366188 -0.17600542 -0.07627575 -0.4937162 -0.038255546 -0.8754563 -0.12084018
-0.03308597 -0.0996546 -0.19323923 -0.09491402 -0.14911963 -0.09479891 0.06638622 -0.04919669
-0.23503421 -0.37256658 -0.34469652 -0.8387025 0.012963031 -0.15825182 -0.6202431 -0.55043375
0.037605308 0.036778152 -0.17662917 -0.05434058 -0.45401 -0.35465947 -0.12664014 -0.045051765
0.034494303 -0.18236734 -0.041570954 -0.49913752 -0.009605187 -0.4990534 -0.590535 -0.3808972
-0.07354013 -0.15990227 -0.3392601 -0.07126123 -0.0715096 -0.48635533 -0.5938597 -0.20560372
-0.073513545 -0.123508625 -0.014288321 -0.08047215 -0.34374964 -0.3219361 -0.7052832 0.14563829
-0.61062557 -0.22660679 0.06814571 -0.02658206 0.070760086 -0.1184762 -0.3064666 0.06557392
-0.14536741 -0.111855105 0.07664067 -0.059671957 -0.20520745 0.031799525 -0.053215105 0.14938943
-0.610943 0.099102035 0.036938023 -0.18584965 -0.08605786 -0.13293669 -0.17506829 -0.0035703375
-0.14215618 -0.06377812 0.054176036 -0.08257719 -0.55193603 0.033041224 -0.3817183 -0.17264761
-0.5909304 0.07270675 -0.14160313 -0.047679756 -0.111596756 -0.026092147 -0.5549054 -0.55360043
-0.021227121 -0.2837537 0.055358186 -0.16005506 -0.685089 -0.700972 -0.65945375 -0.6403486
-0.28998443 -0.09576696 -0.116013266 -0.09440263 -0.2540955 -0.32508537 -0.42927653 0.05848464
-0.29719523 -0.22313814 -0.30835992 -0.35618973 -0.11183369 -0.55214596 -0.082847476 0.04996915
-0.05209765 -0.34075546 -0.4975338 -0.8123237 0.06146512 -0.022303768 -0.3080343 0.043155417
0.15714422 -0.8153481 -0.5873733 -0.36612925 -0.20524952 -0.109906875 -0.13326646 -0.12013475
-0.2412635 -0.7581331 -0.24544412 0.12819211 -0.5729124 -0.02121267 -0.2023875 -0.10818461
0.06960775 -0.37280297 -0.41110083 0.105140455 -0.050999176 0.21084793 -0.5646236 -0.4719981
0.053376663 -0.032568336 -0.09645795 -0.3181931 -0.651558 -0.062081713 -0.3100445 -0.3533498
-0.021182764 0.13184011 -0.14523031 0.0032673886 0.045872167 -0.10530927 -0.08974893 -0.21345481
-0.5509073 -0.29359812 -0.343953 -0.014150155 -0.102529146 -0.08092963 -0.9662579 -0.016227879
-0.011097062 -0.1486177 -0.33928177 -0.11637992 -0.015200183 -0.15674767 -0.3298591 -0.011304919
0.030886708 -0.3125178 -0.5171089 -0.14413631 -0.084847 -0.24348882 -0.3336837 -0.35614535
0.18266426 -0.0919969 -0.5311112 -0.43373612 -0.073152274 -0.10518687 -0.18072389 -0.05791211
-0.07291498 0.0908806 -0.06826418 -0.3395183 0.08824432 -0.17657484 -0.44236466 -0.5287409
-0.16330816 -0.26492724 -0.25762457 0.04867651 -0.105448425 -0.30970812 -0.30520853 0.05519066
-0.046062343 -0.34585047 -0.13050558 0.056157324 -0.09555618 0.0027314257 -0.83953536 -0.065185696
-0.395141 -0.6081952 0.09732551 -0.17423035 -0.0910778 0.0040737567 -0.01974019 -0.15782297
-0.13462158 -0.5750083 0.028613463 -0.008493001 -0.272318 -0.14203905 0.014137139 -0.03733175
-0.3182497 -0.14663485 -0.08459674 -0.3059307 -0.46000713 -0.10269857 -0.1138855 0.007210305

fc3.bias f4 [10]
00000000: f70b 86be 9ae5 dabe 189d 53be 69d6 a13e
00000010: eb5b d93e 6ad5 52be 564e 6e3e 9555 66be
00000020: 383e 5b3e e186 6fbd
-0.26181003 -0.42753297 -0.20665395 0.31608894 0.4245294 -0.20589224 0.2327207 -0.22493584
0.21410453 -0.05847824
